…
Args: Namespace(data='data/penn/', dict_thd=1, model='transformer', nhid=512, nlayers=8, front_layers=2, rear_layers=6, subword='omarmomen/ptb_filtered_lowcase_bpe_tokenizer_8', n_parser_layers=3, nheads=8, conv_size=9, lr=0.0003, clip=0.25, epochs=100, batch_size=4096, dropout=0.1, dropatt=0, mask_rate=0.3, relative_bias=False, pos_emb=True, weight_act='softmax', relations='head,child', seed=1111, nonmono=5, cuda=True, log_interval=100, save='trained_models/subword_1111_tf.pt', wdecay=1.2e-06, resume='', test_grammar=False, tied=True)
Model total parameters: 29580096
Model architecture: Transformer(
  (drop): Dropout(p=0.1, inplace=False)
  (emb): Embedding(8000, 512)
  (pos_emb): Embedding(500, 512)
  (layers): ModuleList(
    (0-7): 8 x TransformerLayer(
      (self_attn): MultiheadAttention(
        (drop): Dropout(p=0, inplace=False)
        (q_proj): Linear(in_features=512, out_features=512, bias=True)
        (k_proj): Linear(in_features=512, out_features=512, bias=True)
        (v_proj): Linear(in_features=512, out_features=512, bias=True)
        (out_proj): Linear(in_features=512, out_features=512, bias=True)
      )
      (feedforward): Sequential(
        (0): LayerNorm((512,), eps=1e-05, elementwise_affine=True)
        (1): Linear(in_features=512, out_features=2048, bias=True)
        (2): LeakyReLU(negative_slope=0.01)
        (3): Dropout(p=0.1, inplace=False)
        (4): Linear(in_features=2048, out_features=512, bias=True)
      )
      (norm): LayerNorm((512,), eps=1e-05, elementwise_affine=True)
      (dropout1): Dropout(p=0.1, inplace=False)
      (dropout2): Dropout(p=0.1, inplace=False)
    )
  )
  (norm): LayerNorm((512,), eps=1e-05, elementwise_affine=True)
  (output_layer): Linear(in_features=512, out_features=8000, bias=True)
)
| epoch   1 |   100/  269 batches | lr 0.00030 | ms/batch 61.39 | loss  7.74 | ppl  2304.10 
| epoch   1 |   200/  269 batches | lr 0.00030 | ms/batch 57.27 | loss  7.35 | ppl  1550.66 
-----------------------------------------------------------------------------------------
| end of epoch   1 | time: 16.10s | valid loss  7.03 | valid ppl  1132.84 | valid bpc   10.146
…
